Model: "model"
_________________________________________________________________
Layer (type)                 Output Shape              Param #   
=================================================================
input (InputLayer)           [(None, 4002, 1)]         0         
_________________________________________________________________
conv1d (Conv1D)              (None, 3963, 32)          1312      
_________________________________________________________________
batch_normalization (BatchNo (None, 3963, 32)          128       
_________________________________________________________________
activation (Activation)      (None, 3963, 32)          0         
_________________________________________________________________
max_pooling1d (MaxPooling1D) (None, 990, 32)           0         
_________________________________________________________________
dropout (Dropout)            (None, 990, 32)           0         
_________________________________________________________________
conv1d_1 (Conv1D)            (None, 951, 32)           40992     
_________________________________________________________________
batch_normalization_1 (Batch (None, 951, 32)           128       
_________________________________________________________________
activation_1 (Activation)    (None, 951, 32)           0         
_________________________________________________________________
max_pooling1d_1 (MaxPooling1 (None, 237, 32)           0         
_________________________________________________________________
dropout_1 (Dropout)          (None, 237, 32)           0         
_________________________________________________________________
lstm (LSTM)                  (None, 237, 128)          82432     
_________________________________________________________________
lstm_1 (LSTM)                (None, 128)               131584    
_________________________________________________________________
dense (Dense)                (None, 1)                 129       
=================================================================
Total params: 256,705
Trainable params: 256,577
Non-trainable params: 128
_________________________________________________________________
